test_models/blobs_mlp.pt (torch, 3487 bytes, 4 tensors)

weight f4 [64, 2]
000000 9f 7a bd 3e d0 bd 9c be 38 4d 09 be 25 47 ab 3e
       0.37007615 -0.30613565 -0.13408363 0.33452716
000010 3d 15 2b bf d2 ee d7 3e 10 c4 12 be 2f 39 b9 3e
       -0.6682928 0.42174393 -0.14332604 0.3617644
000020 e7 c0 cf 3d 55 fb aa bd 6d dc 49 3e e6 e3 12 3d
       0.10144215 -0.08348719 0.19712992 0.035861872
000030 91 4c 7e 3e 11 fe 91 be 19 e4 26 bd e7 39 59 bd
       0.24833895 -0.2851415 -0.040744875 -0.053033736
000040 71 71 d2 3d 01 2b 27 bb 6a 75 1e 3f 1a 2a 62 3e
       0.102755435 -0.002550781 0.6189791 0.22086373
000050 ac b3 87 be 64 89 db be ec 14 f6 bd 58 00 9d be
       -0.26504266 -0.42878258 -0.12015709 -0.30664325
000060 86 e2 66 be dc 30 0f 3d 31 f6 d6 3e f6 f3 c3 3e
       -0.2254735 0.034958705 0.41984704 0.38272065
000070 93 b1 30 bf dc e7 e0 3e fe 0d 4c 3e 3f 22 2c 3f
       -0.69020957 0.43926895 0.19927213 0.67239755
000080 9c 01 ef 3e 42 ea 24 bf 42 ff 2b bf 87 63 ae be
       0.46680915 -0.6441995 -0.6718637 -0.34060308
000090 73 92 1e 3f 8c 2e f4 bd 0e 02 99 3e 94 20 aa be
       0.61942214 -0.119229406 0.2988438 -0.3322798
0000a0 e6 bd 31 3f 3c ee 98 be 2e 38 07 3f ab c1 d0 3b
       0.6943039 -0.29869258 0.528201 0.0063707433
0000b0 5a 4c c0 be 26 9d b8 3e 8e 73 c2 be ff 0a 50 3e
       -0.37558252 0.36057395 -0.37978786 0.20316695
0000c0 56 0c 55 be ac b8 a6 bd c5 3c 2d bf b5 06 ab be
       -0.20805487 -0.08140692 -0.6767085 -0.33403555
0000d0 30 0d c6 3e 67 6e 2d be f5 02 34 3f 0e d2 10 3f
       0.38681936 -0.16936646 0.7031701 0.5657052
0000e0 5d 3f 02 bd 69 fb f0 be f3 50 da 3e 4a 93 5c 3e
       -0.03179871 -0.4706681 0.42639884 0.21540561
0000f0 33 49 ea be 31 e8 ea 3e 39 bd de 3e b8 f6 21 3f
       -0.45758972 0.45880273 0.4350374 0.6326709
000100 05 76 cc be 4a 75 f4 bd de 80 21 bc 1b 98 da 3d
       -0.39933792 -0.119364336 -0.0098573845 0.10673543
000110 97 61 09 bf 69 75 00 bf 42 7d c2 3e f8 f4 2e be
       -0.53664535 -0.50179154 0.3798619 -0.17085636
000120 78 90 b0 3e b5 f1 22 3d 56 bf 6c 3e a4 40 1e 3e
       0.3448522 0.03978129 0.23119864 0.15454346
000130 16 40 84 3e a0 0e b4 3e c8 81 27 bf 8f 7f b6 3e
       0.25830144 0.35167408 -0.65432405 0.35644194
000140 01 e1 00 bf 8f 2f 0a bf 1e a2 31 3d 36 cf f5 bd
       -0.5034333 -0.5397882 0.043367498 -0.12002413
000150 76 6b d4 3e b3 e1 d1 be 07 e1 21 bf d8 c2 02 3f
       0.41488236 -0.40992507 -0.6323399 0.5107856
000160 bc 92 d2 bd 3c a1 cc 3e 6f 87 64 3e 07 c7 08 bf
       -0.102818936 0.39966762 0.22317289 -0.5342869
000170 33 85 10 3e 92 02 2d 3e 12 d6 f1 be 20 35 ab be
       0.14113311 0.16895512 -0.47233635 -0.3343897
000180 43 8d 79 3e fd 42 04 3e 99 d4 9a be ad da 5c be
       0.24370293 0.12916179 -0.30240324 -0.21567793
000190 81 be 24 3f e7 fb 09 be 8b ec cd 3e e0 81 9e 3e
       0.64353186 -0.13475 0.4021953 0.30958462
0001a0 ea 23 e9 be 6a 80 19 bf 67 9d 2e 3f c4 6f 24 3d
       -0.45535213 -0.5996157 0.68208927 0.04014565
0001b0 a9 a3 f9 3e c7 e5 18 3e 43 e8 6a 3e c8 b3 07 3f
       0.48757675 0.14931403 0.22940163 0.530087
0001c0 93 7b 2b 3f 87 85 f0 be b3 08 ae 3d 9e 3d 06 3f
       0.66985434 -0.46976873 0.08497753 0.5243777
0001d0 c4 15 03 3f f5 cf e0 3e 36 d9 03 bf 7c 32 03 bf
       0.51205087 0.4390866 -0.5150331 -0.5124891
0001e0 2a e3 db be 01 2c b2 3d 02 91 34 3f 2f 6c e4 be
       -0.4294675 0.08699799 0.70533764 -0.44613788
0001f0 e3 13 c2 3e f9 3d c7 be 83 85 29 bf 16 30 17 be
       0.37905797 -0.3891447 -0.6621935 -0.14764437

bias f4 [64]
000000 ae a9 d0 3e 80 21 28 3f b6 8a e0 be 7e a5 1d 3e
       0.40754455 0.65676117 -0.43855828 0.15395162
000010 6b 2d 1c 3f d8 08 f0 3e 3d cf e1 3e 5a 89 00 3f
       0.610068 0.46881747 0.44103423 0.5020958
000020 54 ff e4 3e d6 3f 3b 3e 08 58 f7 be bb e7 17 bf
       0.4472605 0.1828607 -0.4830935 -0.5933797
000030 a8 09 a6 be 3e 80 a9 bd 94 07 de be ec ad 84 3e
       -0.32429242 -0.082764134 -0.43365157 0.25913942
000040 57 15 60 3e f3 12 24 be 12 f4 8a 3e 24 31 6a 3e
       0.2188314 -0.16022854 0.27139336 0.22870308
000050 ff 17 dd 3e 49 8b f3 3e 4b 0c 75 be c5 fc 30 3f
       0.4318237 0.47567204 -0.2393047 0.69135696
000060 6d 62 a5 bd be 7a cd bc 27 ae 2a bf 58 29 e9 be
       -0.08075414 -0.025082942 -0.66671985 -0.45539355
000070 de ac d3 be cc 65 9b be b8 b3 00 3f 2d 1e 6b be
       -0.41342825 -0.30351102 0.5027423 -0.2296073
000080 e7 13 07 bf 22 9c 8b 3e 61 d5 67 3e 03 0c ea 3e
       -0.52764744 0.27267557 0.22639991 0.4571229
000090 89 6a bb be e1 bc 1c 3e e8 a4 83 be e6 cf 22 be
       -0.36604717 0.15306427 -0.2571175 -0.1589962
0000a0 c5 d8 0f bf e4 0d a5 be f2 c0 5d be 57 09 9b 3e
       -0.5619014 -0.3223716 -0.21655634 0.30280563
0000b0 16 ce 04 3e 62 d8 33 3e 0d 9e 34 3f a8 5a 30 3f
       0.1296924 0.17563012 0.70553666 0.6888833
0000c0 d3 43 f7 3e a8 de bb 3c fb fb fa be bb b2 0d 3f
       0.48293933 0.02293332 -0.4902037 0.55350846
0000d0 cb 83 35 be 6b ab 66 bd a2 c2 1b bf 91 82 0e be
       -0.17726056 -0.05631582 -0.6084386 -0.13916995
0000e0 fe 92 e9 be 12 1e 26 3f ec 81 1c bf 94 e2 0c bf
       -0.4561996 0.64889634 -0.61135745 -0.5503323
0000f0 38 db c0 bc fd b1 c3 be fd 81 81 3e fc b3 8b be
       -0.023542032 -0.38221732 0.25294486 -0.27285755

weight f4 [2, 64]
000000 f1 1b 7a bd c7 f3 bf ba ec 32 c3 3d 93 0a c1 bd
       -0.061061803 -0.0014644795 0.09531197 -0.09425845
000010 3c aa 6f 3d 31 ac 91 3d aa dd fd 3d 6c e6 a5 bd
       0.058511958 0.07112921 0.12395795 -0.0810059
000020 05 e6 ce 3c 6f 7d ec bd 7b 5c fe 3d f5 29 24 bd
       0.025256166 -0.11547362 0.12419983 -0.040079076
000030 37 11 a1 3d fc 0b 87 bc 82 03 98 bb f0 be e4 bc
       0.078646116 -0.016485207 -0.00463909 -0.027923077
000040 07 e6 e2 3c 3a d7 b5 3d 96 3d a2 3b a4 a2 21 3d
       0.027697576 0.08878942 0.0049511893 0.039461747
000050 19 da 00 be 01 29 97 3d de f5 df 3d 73 3c e7 3d
       -0.12583198 0.07380868 0.10935567 0.11290827
000060 a4 e6 cd 3d b2 ab 72 bd ad b8 45 bd cb ba a4 3d
       0.10053757 -0.059245773 -0.048271824 0.080434404
000070 88 e3 a9 bd 74 10 ca 3d 39 b3 c7 bd a8 14 e9 bd
       -0.08295351 0.098664194 -0.09750981 -0.11380893
000080 00 19 95 3d ac 48 c0 bd 23 e6 a5 3b ff c0 a8 3d
       0.07280159 -0.09388861 0.005062835 0.08239936
000090 7b 21 bb 3d 04 86 db 3d af fd 20 bd c6 84 b6 bd
       0.09137245 0.10718921 -0.03930443 -0.08912043
0000a0 32 24 1a 3e cd 93 d7 bc b7 7d 53 bd 50 1c 11 3d
       0.1505287 -0.026315594 -0.051633563 0.03542739
0000b0 85 dd c3 bd da 4c be 3d a8 6b 86 3d d9 2f 8d bd
       -0.09563736 0.09292002 0.065635026 -0.06893892
0000c0 17 87 ec bd ec 2b a7 3b 1d b3 2c 3d 2c dc d1 bc
       -0.11549204 0.0051016714 0.042163003 -0.025617681
0000d0 98 40 04 bd c3 c5 7f bc 5c 10 05 be ca bd da bd
       -0.032288164 -0.015611115 -0.12994522 -0.10680731
0000e0 99 e6 b1 bd 04 07 aa 3d 92 b2 b7 3d 2f c1 7a bc
       -0.08686561 0.083021194 0.089696065 -0.015304848
0000f0 2b 03 82 3c 65 07 4f 3d 71 99 7f 3c f9 f1 22 bd
       0.015870651 0.05054416 0.015600548 -0.039781544
000100 a0 75 98 3d e1 de ae 3d b6 bd 45 bc 29 65 14 bc
       0.0744431 0.085386045 -0.012069156 -0.009057322
000110 85 06 e9 3d c1 91 f2 3d 04 98 94 bd 5c 2f ed 3d
       0.113781966 0.118442066 -0.07255557 0.11581299
000120 00 42 13 3d 4d b5 75 bd 1b ac 50 3d 5f 58 d0 bd
       0.035951614 -0.059987355 0.050945383 -0.101731054
000130 29 a9 e5 3d 26 63 76 bd 16 de f7 3c b2 f0 7d 3d
       0.11213905 -0.06015315 0.030257266 0.061997123
000140 09 be be 3c 34 2b 97 3d 1b d3 16 bd 30 99 5d bd
       0.023283975 0.07381287 -0.03682242 -0.05410117
000150 b2 6a c2 bd ea b6 46 3c 58 12 74 bd 4e e0 95 bb
       -0.09493007 0.012128571 -0.059587806 -0.0045738583
000160 5e 47 0a bd 49 4b 2c 3c be 6b e1 3d 41 88 88 3d
       -0.033759467 0.010515996 0.11006878 0.06666613
000170 a0 20 57 bd 2b de 3e bd 01 ea e0 bd d4 14 06 3e
       -0.052521348 -0.046598595 -0.10982133 0.13093883
000180 1f e2 10 bd 28 1a f0 3c d8 31 ee bc 07 a8 91 bd
       -0.035371896 0.029309347 -0.029076502 -0.07112127
000190 83 d1 9f 3d a2 0e a6 3d 45 c3 a5 3c 2c f1 a1 bd
       0.07803633 0.0810826 0.020234713 -0.07907328
0001a0 88 ff a4 bd 75 a4 b8 3a 0e d8 91 bd 90 fc 98 bd
       -0.08056551 0.0014087098 -0.07121287 -0.074700475
0001b0 b5 c9 2a bc f4 80 3f bd 8e bb 31 3d 9c 3b 81 bd
       -0.010424067 -0.04675384 0.043391757 -0.06310198
0001c0 f5 c0 75 bb 57 95 82 bd 9e c5 d4 bd 5e 28 06 3e
       -0.0037499045 -0.063761406 -0.10389255 0.13101336
0001d0 ed 86 ed bb 7b 5f 05 3e 2d 08 fc bb b5 34 54 bc
       -0.0072487504 0.13024704 -0.0076914043 -0.012952019
0001e0 d1 2e e9 bd f2 88 e1 bc 78 d8 d1 3d 9a 2c 19 be
       -0.11385883 -0.02753112 0.10246366 -0.1495842
0001f0 6d 1f 5d bd 4d a0 a6 3d 7c 44 92 3d 0a 3a bf 3c
       -0.053985048 0.08136044 0.071419686 0.023343105

bias f4 [2]
000000 25 e2 c0 bc e0 b0 2e bc
       -0.023545334 -0.0106622875
